…
I0908 11:24:15.559492  5128 solver.cpp:70] Creating training net from net file: ..\models\rpn_prototxts\vgg_16layers_conv3_1\train_val_widerface.prototxt
I0908 11:24:15.559492  5128 net.cpp:42] Initializing net from parameters: 
name: "VGG_ILSVRC_16"
input: "data"
input: "labels"
input: "labels_weights"
input: "bbox_targets"
input: "bbox_loss_weights"
input_dim: 1
input_dim: 3
input_dim: 224
input_dim: 224
input_dim: 1
input_dim: 7
input_dim: 14
input_dim: 14
input_dim: 1
input_dim: 7
input_dim: 14
input_dim: 14
input_dim: 1
input_dim: 28
input_dim: 14
input_dim: 14
input_dim: 1
input_dim: 28
input_dim: 14
input_dim: 14
state {
  phase: TRAIN
}
layer {
  name: "conv1_1"
  type: "Convolution"
  bottom: "data"
  top: "conv1_1"
  param {
    lr_mult: 0
  }
  param {
    lr_mult: 0
  }
  convolution_param {
    num_output: 64
    pad: 1
    kernel_size: 3
  }
}
layer {
  name: "relu1_1"
  type: "ReLU"
  bottom: "conv1_1"
  top: "conv1_1"
}
layer {
  name: "conv1_2"
  type: "Convolution"
  bottom: "conv1_1"
  top: "conv1_2"
  param {
    lr_mult: 0
  }
  param {
    lr_mult: 0
  }
  convolution_param {
    num_output: 64
    pad: 1
    kernel_size: 3
  }
}
layer {
  name: "relu1_2"
  type: "ReLU"
  bottom: "conv1_2"
  top: "conv1_2"
}
layer {
  name: "pool1"
  type: "Pooling"
  bottom: "conv1_2"
  top: "pool1"
  pooling_param {
    pool: MAX
    kernel_size: 2
    stride: 2
  }
}
layer {
  name: "conv2_1"
  type: "Convolution"
  bottom: "pool1"
  top: "conv2_1"
  param {
    lr_mult: 0
  }
  param {
    lr_mult: 0
  }
  convolution_param {
    num_output: 128
    pad: 1
    kernel_size: 3
  }
}
layer {
  name: "relu2_1"
  type: "ReLU"
  bottom: "conv2_1"
  top: "conv2_1"
}
layer {
  name: "conv2_2"
  type: "Convolution"
  bottom: "conv2_1"
  top: "conv2_2"
  param {
    lr_mult: 0
  }
  param {
    lr_mult: 0
  }
  convolution_param {
    num_output: 128
    pad: 1
    kernel_size: 3
  }
}
layer {
  name: "relu2_2"
  type: "ReLU"
  bottom: "conv2_2"
  top: "conv2_2"
}
layer {
  name: "pool2"
  type: "Pooling"
  bottom: "conv2_2"
  top: "pool2"
  pooling_param {
    pool: MAX
    kernel_size: 2
    stride: 2
  }
}
layer {
  name: "conv3_1"
  type: "Convolution"
  bottom: "pool2"
  top: "conv3_1"
  param {
    lr_mult: 1
  }
  param {
    lr_mult: 2
  }
  convolution_param {
    num_output: 256
    pad: 1
    kernel_size: 3
  }
}
layer {
  name: "relu3_1"
  type: "ReLU"
  bottom: "conv3_1"
  top: "conv3_1"
}
layer {
  name: "conv3_2"
  type: "Convolution"
  bottom: "conv3_1"
  top: "conv3_2"
  param {
    lr_mult: 1
  }
  param {
    lr_mult: 2
  }
  convolution_param {
    num_output: 256
    pad: 1
    kernel_size: 3
  }
}
layer {
  name: "relu3_2"
  type: "ReLU"
  bottom: "conv3_2"
  top: "conv3_2"
}
layer {
  name: "conv3_3"
  type: "Convolution"
  bottom: "conv3_2"
  top: "conv3_3"
  param {
    lr_mult: 1
  }
  param {
    lr_mult: 2
  }
  convolution_param {
    num_output: 256
    pad: 1
    kernel_size: 3
  }
}
layer {
  name: "relu3_3"
  type: "ReLU"
  bottom: "conv3_3"
  top: "conv3_3"
}
layer {
  name: "pool3"
  type: "Pooling"
  bottom: "conv3_3"
  top: "pool3"
  pooling_param {
    pool: MAX
    kernel_size: 2
    stride: 2
  }
}
layer {
  name: "conv4_1"
  type: "Convolution"
  bottom: "pool3"
  top: "conv4_1"
  param {
    lr_mult: 1
  }
  param {
    lr_mult: 2
  }
  convolution_param {
    num_output: 512
    pad: 1
    kernel_size: 3
  }
}
layer {
  name: "relu4_1"
  type: "ReLU"
  bottom: "conv4_1"
  top: "conv4_1"
}
layer {
  name: "conv4_2"
  type: "Convolution"
  bottom: "conv4_1"
  top: "conv4_2"
  param {
    lr_mult: 1
  }
  param {
    lr_mult: 2
  }
  convolution_param {
    num_output: 512
    pad: 1
    kernel_size: 3
  }
}
layer {
  name: "relu4_2"
  type: "ReLU"
  bottom: "conv4_2"
  top: "conv4_2"
}
layer {
  name: "conv4_3"
  type: "Convolution"
  bottom: "conv4_2"
  top: "conv4_3"
  param {
    lr_mult: 1
  }
  param {
    lr_mult: 2
  }
  convolution_param {
    num_output: 512
    pad: 1
    kernel_size: 3
  }
}
layer {
  name: "relu4_3"
  type: "ReLU"
  bottom: "conv4_3"
  top: "conv4_3"
}
layer {
  name: "pool4"
  type: "Pooling"
  bottom: "conv4_3"
  top: "pool4"
  pooling_param {
    pool: MAX
    kernel_size: 2
    stride: 2
  }
}
layer {
  name: "conv5_1"
  type: "Convolution"
  bottom: "pool4"
  top: "conv5_1"
  param {
    lr_mult: 1
  }
  param {
    lr_mult: 2
  }
  convolution_param {
    num_output: 512
    pad: 1
    kernel_size: 3
  }
}
layer {
  name: "relu5_1"
  type: "ReLU"
  bottom: "conv5_1"
  top: "conv5_1"
}
layer {
  name: "conv5_2"
  type: "Convolution"
  bottom: "conv5_1"
  top: "conv5_2"
  param {
    lr_mult: 1
  }
  param {
    lr_mult: 2
  }
  convolution_param {
    num_output: 512
    pad: 1
    kernel_size: 3
  }
}
layer {
  name: "relu5_2"
  type: "ReLU"
  bottom: "conv5_2"
  top: "conv5_2"
}
layer {
  name: "conv5_3"
  type: "Convolution"
  bottom: "conv5_2"
  top: "conv5_3"
  param {
    lr_mult: 1
  }
  param {
    lr_mult: 2
  }
  convolution_param {
    num_output: 512
    pad: 1
    kernel_size: 3
  }
}
layer {
  name: "relu5_3"
  type: "ReLU"
  bottom: "conv5_3"
  top: "conv5_3"
}
layer {
  name: "conv_proposal1"
  type: "Convolution"
  bottom: "conv5_3"
  top: "conv_proposal1"
  param {
    lr_mult: 1
  }
  param {
    lr_mult: 2
  }
  convolution_param {
    num_output: 512
    pad: 1
    kernel_size: 3
    stride: 1
    weight_filler {
      type: "gaussian"
      std: 0.01
    }
    bias_filler {
      type: "constant"
      value: 0
    }
  }
}
layer {
  name: "relu_proposal1"
  type: "ReLU"
  bottom: "conv_proposal1"
  top: "conv_proposal1"
}
layer {
  name: "proposal_cls_score"
  type: "Convolution"
  bottom: "conv_proposal1"
  top: "proposal_cls_score"
  param {
    lr_mult: 1
  }
  param {
    lr_mult: 2
  }
  convolution_param {
    num_output: 14
    pad: 0
    kernel_size: 1
    stride: 1
    weight_filler {
      type: "gaussian"
      std: 0.01
    }
    bias_filler {
      type: "constant"
      value: 0
    }
  }
}
layer {
  name: "proposal_bbox_pred"
  type: "Convolution"
  bottom: "conv_proposal1"
  top: "proposal_bbox_pred"
  param {
    lr_mult: 1
  }
  param {
    lr_mult: 2
  }
  convolution_param {
    num_output: 28
    pad: 0
    kernel_size: 1
    stride: 1
    weight_filler {
      type: "gaussian"
      std: 0.01
    }
    bias_filler {
      type: "constant"
      value: 0
    }
  }
}
layer {
  name: "proposal_cls_score_reshape"
  type: "Reshape"
  bottom: "proposal_cls_score"
  top: "proposal_cls_score_reshape"
  reshape_param {
    shape {
      dim: 0
      dim: 2
      dim: -1
      dim: 0
    }
  }
}
layer {
  name: "labels_reshape"
  type: "Reshape"
  bottom: "labels"
  top: "labels_reshape"
  reshape_param {
    shape {
      dim: 0
      dim: 1
      dim: -1
      dim: 0
    }
  }
}
layer {
  name: "labels_weights_reshape"
  type: "Reshape"
  bottom: "labels_weights"
  top: "labels_weights_reshape"
  reshape_param {
    shape {
      dim: 0
      dim: 1
      dim: -1
      dim: 0
    }
  }
}
layer {
  name: "loss"
  type: "SoftmaxWithLoss"
  bottom: "proposal_cls_score_reshape"
  bottom: "labels_reshape"
  bottom: "labels_weights_reshape"
  top: "loss_cls"
  loss_weight: 1
}
layer {
  name: "accuarcy"
  type: "Accuracy"
  bottom: "proposal_cls_score_reshape"
  bottom: "labels_reshape"
  top: "accuarcy"
}
layer {
  name: "loss_bbox"
  type: "SmoothL1Loss"
  bottom: "proposal_bbox_pred"
  bottom: "bbox_targets"
  bottom: "bbox_loss_weights"
  top: "loss_bbox"
  loss_weight: 10
}
I0908 11:24:15.559492  5128 net.cpp:380] Input 0 -> data
I0908 11:24:15.559492  5128 net.cpp:380] Input 1 -> labels
I0908 11:24:15.559492  5128 net.cpp:380] Input 2 -> labels_weights
I0908 11:24:15.559492  5128 net.cpp:380] Input 3 -> bbox_targets
I0908 11:24:15.559492  5128 net.cpp:380] Input 4 -> bbox_loss_weights
I0908 11:24:15.559492  5128 layer_factory.hpp:74] Creating layer conv1_1
I0908 11:24:15.559492  5128 net.cpp:90] Creating Layer conv1_1
I0908 11:24:15.559492  5128 net.cpp:420] conv1_1 <- data
I0908 11:24:15.559492  5128 net.cpp:378] conv1_1 -> conv1_1
I0908 11:24:15.559492  5128 net.cpp:120] Setting up conv1_1
I0908 11:24:15.559492  5128 net.cpp:127] Top shape: 1 64 224 224 (3211264)
I0908 11:24:15.559492  5128 layer_factory.hpp:74] Creating layer relu1_1
I0908 11:24:15.559492  5128 net.cpp:90] Creating Layer relu1_1
I0908 11:24:15.559492  5128 net.cpp:420] relu1_1 <- conv1_1
I0908 11:24:15.559492  5128 net.cpp:367] relu1_1 -> conv1_1 (in-place)
I0908 11:24:15.559492  5128 net.cpp:120] Setting up relu1_1
I0908 11:24:15.559492  5128 net.cpp:127] Top shape: 1 64 224 224 (3211264)
I0908 11:24:15.559492  5128 layer_factory.hpp:74] Creating layer conv1_2
I0908 11:24:15.559492  5128 net.cpp:90] Creating Layer conv1_2
I0908 11:24:15.559492  5128 net.cpp:420] conv1_2 <- conv1_1
I0908 11:24:15.559492  5128 net.cpp:378] conv1_2 -> conv1_2
I0908 11:24:15.559492  5128 net.cpp:120] Setting up conv1_2
I0908 11:24:15.559492  5128 net.cpp:127] Top shape: 1 64 224 224 (3211264)
I0908 11:24:15.559492  5128 layer_factory.hpp:74] Creating layer relu1_2
I0908 11:24:15.559492  5128 net.cpp:90] Creating Layer relu1_2
I0908 11:24:15.559492  5128 net.cpp:420] relu1_2 <- conv1_2
I0908 11:24:15.559492  5128 net.cpp:367] relu1_2 -> conv1_2 (in-place)
I0908 11:24:15.559492  5128 net.cpp:120] Setting up relu1_2
I0908 11:24:15.559492  5128 net.cpp:127] Top shape: 1 64 224 224 (3211264)
I0908 11:24:15.559492  5128 layer_factory.hpp:74] Creating layer pool1
I0908 11:24:15.559492  5128 net.cpp:90] Creating Layer pool1
I0908 11:24:15.559492  5128 net.cpp:420] pool1 <- conv1_2
I0908 11:24:15.559492  5128 net.cpp:378] pool1 -> pool1
I0908 11:24:15.559492  5128 net.cpp:120] Setting up pool1
I0908 11:24:15.559492  5128 net.cpp:127] Top shape: 1 64 112 112 (802816)
I0908 11:24:15.559492  5128 layer_factory.hpp:74] Creating layer conv2_1
I0908 11:24:15.559492  5128 net.cpp:90] Creating Layer conv2_1
I0908 11:24:15.559492  5128 net.cpp:420] conv2_1 <- pool1
I0908 11:24:15.559492  5128 net.cpp:378] conv2_1 -> conv2_1
I0908 11:24:15.559492  5128 net.cpp:120] Setting up conv2_1
I0908 11:24:15.559492  5128 net.cpp:127] Top shape: 1 128 112 112 (1605632)
I0908 11:24:15.559492  5128 layer_factory.hpp:74] Creating layer relu2_1
I0908 11:24:15.559492  5128 net.cpp:90] Creating Layer relu2_1
I0908 11:24:15.559492  5128 net.cpp:420] relu2_1 <- conv2_1
I0908 11:24:15.559492  5128 net.cpp:367] relu2_1 -> conv2_1 (in-place)
I0908 11:24:15.559492  5128 net.cpp:120] Setting up relu2_1
I0908 11:24:15.559492  5128 net.cpp:127] Top shape: 1 128 112 112 (1605632)
I0908 11:24:15.559492  5128 layer_factory.hpp:74] Creating layer conv2_2
I0908 11:24:15.559492  5128 net.cpp:90] Creating Layer conv2_2
I0908 11:24:15.559492  5128 net.cpp:420] conv2_2 <- conv2_1
I0908 11:24:15.559492  5128 net.cpp:378] conv2_2 -> conv2_2
I0908 11:24:15.559492  5128 net.cpp:120] Setting up conv2_2
I0908 11:24:15.559492  5128 net.cpp:127] Top shape: 1 128 112 112 (1605632)
I0908 11:24:15.559492  5128 layer_factory.hpp:74] Creating layer relu2_2
I0908 11:24:15.559492  5128 net.cpp:90] Creating Layer relu2_2
I0908 11:24:15.559492  5128 net.cpp:420] relu2_2 <- conv2_2
I0908 11:24:15.559492  5128 net.cpp:367] relu2_2 -> conv2_2 (in-place)
I0908 11:24:15.559492  5128 net.cpp:120] Setting up relu2_2
I0908 11:24:15.559492  5128 net.cpp:127] Top shape: 1 128 112 112 (1605632)
I0908 11:24:15.559492  5128 layer_factory.hpp:74] Creating layer pool2
I0908 11:24:15.559492  5128 net.cpp:90] Creating Layer pool2
I0908 11:24:15.559492  5128 net.cpp:420] pool2 <- conv2_2
I0908 11:24:15.559492  5128 net.cpp:378] pool2 -> pool2
I0908 11:24:15.559492  5128 net.cpp:120] Setting up pool2
I0908 11:24:15.559492  5128 net.cpp:127] Top shape: 1 128 56 56 (401408)
I0908 11:24:15.559492  5128 layer_factory.hpp:74] Creating layer conv3_1
I0908 11:24:15.559492  5128 net.cpp:90] Creating Layer conv3_1
I0908 11:24:15.559492  5128 net.cpp:420] conv3_1 <- pool2
I0908 11:24:15.559492  5128 net.cpp:378] conv3_1 -> conv3_1
I0908 11:24:15.559492  5128 net.cpp:120] Setting up conv3_1
I0908 11:24:15.559492  5128 net.cpp:127] Top shape: 1 256 56 56 (802816)
I0908 11:24:15.559492  5128 layer_factory.hpp:74] Creating layer relu3_1
I0908 11:24:15.559492  5128 net.cpp:90] Creating Layer relu3_1
I0908 11:24:15.559492  5128 net.cpp:420] relu3_1 <- conv3_1
I0908 11:24:15.559492  5128 net.cpp:367] relu3_1 -> conv3_1 (in-place)
I0908 11:24:15.559492  5128 net.cpp:120] Setting up relu3_1
I0908 11:24:15.559492  5128 net.cpp:127] Top shape: 1 256 56 56 (802816)
I0908 11:24:15.559492  5128 layer_factory.hpp:74] Creating layer conv3_2
I0908 11:24:15.559492  5128 net.cpp:90] Creating Layer conv3_2
I0908 11:24:15.559492  5128 net.cpp:420] conv3_2 <- conv3_1
I0908 11:24:15.559492  5128 net.cpp:378] conv3_2 -> conv3_2
I0908 11:24:15.559492  5128 net.cpp:120] Setting up conv3_2
I0908 11:24:15.575088  5128 net.cpp:127] Top shape: 1 256 56 56 (802816)
I0908 11:24:15.575088  5128 layer_factory.hpp:74] Creating layer relu3_2
I0908 11:24:15.575088  5128 net.cpp:90] Creating Layer relu3_2
I0908 11:24:15.575088  5128 net.cpp:420] relu3_2 <- conv3_2
I0908 11:24:15.575088  5128 net.cpp:367] relu3_2 -> conv3_2 (in-place)
I0908 11:24:15.575088  5128 net.cpp:120] Setting up relu3_2
I0908 11:24:15.575088  5128 net.cpp:127] Top shape: 1 256 56 56 (802816)
I0908 11:24:15.575088  5128 layer_factory.hpp:74] Creating layer conv3_3
I0908 11:24:15.575088  5128 net.cpp:90] Creating Layer conv3_3
I0908 11:24:15.575088  5128 net.cpp:420] conv3_3 <- conv3_2
I0908 11:24:15.575088  5128 net.cpp:378] conv3_3 -> conv3_3
I0908 11:24:15.575088  5128 net.cpp:120] Setting up conv3_3
I0908 11:24:15.575088  5128 net.cpp:127] Top shape: 1 256 56 56 (802816)
I0908 11:24:15.575088  5128 layer_factory.hpp:74] Creating layer relu3_3
I0908 11:24:15.575088  5128 net.cpp:90] Creating Layer relu3_3
I0908 11:24:15.575088  5128 net.cpp:420] relu3_3 <- conv3_3
I0908 11:24:15.575088  5128 net.cpp:367] relu3_3 -> conv3_3 (in-place)
I0908 11:24:15.575088  5128 net.cpp:120] Setting up relu3_3
I0908 11:24:15.575088  5128 net.cpp:127] Top shape: 1 256 56 56 (802816)
I0908 11:24:15.575088  5128 layer_factory.hpp:74] Creating layer pool3
I0908 11:24:15.575088  5128 net.cpp:90] Creating Layer pool3
I0908 11:24:15.575088  5128 net.cpp:420] pool3 <- conv3_3
I0908 11:24:15.575088  5128 net.cpp:378] pool3 -> pool3
I0908 11:24:15.575088  5128 net.cpp:120] Setting up pool3
I0908 11:24:15.575088  5128 net.cpp:127] Top shape: 1 256 28 28 (200704)
I0908 11:24:15.575088  5128 layer_factory.hpp:74] Creating layer conv4_1
I0908 11:24:15.575088  5128 net.cpp:90] Creating Layer conv4_1
I0908 11:24:15.575088  5128 net.cpp:420] conv4_1 <- pool3
I0908 11:24:15.575088  5128 net.cpp:378] conv4_1 -> conv4_1
I0908 11:24:15.575088  5128 net.cpp:120] Setting up conv4_1
I0908 11:24:15.575088  5128 net.cpp:127] Top shape: 1 512 28 28 (401408)
I0908 11:24:15.575088  5128 layer_factory.hpp:74] Creating layer relu4_1
I0908 11:24:15.575088  5128 net.cpp:90] Creating Layer relu4_1
I0908 11:24:15.575088  5128 net.cpp:420] relu4_1 <- conv4_1
I0908 11:24:15.575088  5128 net.cpp:367] relu4_1 -> conv4_1 (in-place)
I0908 11:24:15.575088  5128 net.cpp:120] Setting up relu4_1
I0908 11:24:15.575088  5128 net.cpp:127] Top shape: 1 512 28 28 (401408)
I0908 11:24:15.575088  5128 layer_factory.hpp:74] Creating layer conv4_2
I0908 11:24:15.575088  5128 net.cpp:90] Creating Layer conv4_2
I0908 11:24:15.575088  5128 net.cpp:420] conv4_2 <- conv4_1
I0908 11:24:15.575088  5128 net.cpp:378] conv4_2 -> conv4_2
I0908 11:24:15.575088  5128 net.cpp:120] Setting up conv4_2
I0908 11:24:15.575088  5128 net.cpp:127] Top shape: 1 512 28 28 (401408)
I0908 11:24:15.575088  5128 layer_factory.hpp:74] Creating layer relu4_2
I0908 11:24:15.575088  5128 net.cpp:90] Creating Layer relu4_2
I0908 11:24:15.575088  5128 net.cpp:420] relu4_2 <- conv4_2
I0908 11:24:15.575088  5128 net.cpp:367] relu4_2 -> conv4_2 (in-place)
I0908 11:24:15.575088  5128 net.cpp:120] Setting up relu4_2
I0908 11:24:15.575088  5128 net.cpp:127] Top shape: 1 512 28 28 (401408)
I0908 11:24:15.575088  5128 layer_factory.hpp:74] Creating layer conv4_3
I0908 11:24:15.575088  5128 net.cpp:90] Creating Layer conv4_3
I0908 11:24:15.575088  5128 net.cpp:420] conv4_3 <- conv4_2
I0908 11:24:15.575088  5128 net.cpp:378] conv4_3 -> conv4_3
I0908 11:24:15.575088  5128 net.cpp:120] Setting up conv4_3
I0908 11:24:15.575088  5128 net.cpp:127] Top shape: 1 512 28 28 (401408)
I0908 11:24:15.575088  5128 layer_factory.hpp:74] Creating layer relu4_3
I0908 11:24:15.575088  5128 net.cpp:90] Creating Layer relu4_3
I0908 11:24:15.575088  5128 net.cpp:420] relu4_3 <- conv4_3
I0908 11:24:15.575088  5128 net.cpp:367] relu4_3 -> conv4_3 (in-place)
I0908 11:24:15.575088  5128 net.cpp:120] Setting up relu4_3
I0908 11:24:15.575088  5128 net.cpp:127] Top shape: 1 512 28 28 (401408)
I0908 11:24:15.575088  5128 layer_factory.hpp:74] Creating layer pool4
I0908 11:24:15.575088  5128 net.cpp:90] Creating Layer pool4
I0908 11:24:15.575088  5128 net.cpp:420] pool4 <- conv4_3
I0908 11:24:15.575088  5128 net.cpp:378] pool4 -> pool4
I0908 11:24:15.575088  5128 net.cpp:120] Setting up pool4
I0908 11:24:15.575088  5128 net.cpp:127] Top shape: 1 512 14 14 (100352)
I0908 11:24:15.575088  5128 layer_factory.hpp:74] Creating layer conv5_1
I0908 11:24:15.575088  5128 net.cpp:90] Creating Layer conv5_1
I0908 11:24:15.575088  5128 net.cpp:420] conv5_1 <- pool4
I0908 11:24:15.575088  5128 net.cpp:378] conv5_1 -> conv5_1
I0908 11:24:15.575088  5128 net.cpp:120] Setting up conv5_1
I0908 11:24:15.575088  5128 net.cpp:127] Top shape: 1 512 14 14 (100352)
I0908 11:24:15.575088  5128 layer_factory.hpp:74] Creating layer relu5_1
I0908 11:24:15.575088  5128 net.cpp:90] Creating Layer relu5_1
I0908 11:24:15.575088  5128 net.cpp:420] relu5_1 <- conv5_1
I0908 11:24:15.575088  5128 net.cpp:367] relu5_1 -> conv5_1 (in-place)
I0908 11:24:15.575088  5128 net.cpp:120] Setting up relu5_1
I0908 11:24:15.575088  5128 net.cpp:127] Top shape: 1 512 14 14 (100352)
I0908 11:24:15.575088  5128 layer_factory.hpp:74] Creating layer conv5_2
I0908 11:24:15.575088  5128 net.cpp:90] Creating Layer conv5_2
I0908 11:24:15.575088  5128 net.cpp:420] conv5_2 <- conv5_1
I0908 11:24:15.575088  5128 net.cpp:378] conv5_2 -> conv5_2
I0908 11:24:15.575088  5128 net.cpp:120] Setting up conv5_2
I0908 11:24:15.590726  5128 net.cpp:127] Top shape: 1 512 14 14 (100352)
I0908 11:24:15.590726  5128 layer_factory.hpp:74] Creating layer relu5_2
I0908 11:24:15.590726  5128 net.cpp:90] Creating Layer relu5_2
I0908 11:24:15.590726  5128 net.cpp:420] relu5_2 <- conv5_2
I0908 11:24:15.590726  5128 net.cpp:367] relu5_2 -> conv5_2 (in-place)
I0908 11:24:15.590726  5128 net.cpp:120] Setting up relu5_2
I0908 11:24:15.590726  5128 net.cpp:127] Top shape: 1 512 14 14 (100352)
I0908 11:24:15.590726  5128 layer_factory.hpp:74] Creating layer conv5_3
I0908 11:24:15.590726  5128 net.cpp:90] Creating Layer conv5_3
I0908 11:24:15.590726  5128 net.cpp:420] conv5_3 <- conv5_2
I0908 11:24:15.590726  5128 net.cpp:378] conv5_3 -> conv5_3
I0908 11:24:15.590726  5128 net.cpp:120] Setting up conv5_3
I0908 11:24:15.590726  5128 net.cpp:127] Top shape: 1 512 14 14 (100352)
I0908 11:24:15.590726  5128 layer_factory.hpp:74] Creating layer relu5_3
I0908 11:24:15.590726  5128 net.cpp:90] Creating Layer relu5_3
I0908 11:24:15.590726  5128 net.cpp:420] relu5_3 <- conv5_3
I0908 11:24:15.590726  5128 net.cpp:367] relu5_3 -> conv5_3 (in-place)
I0908 11:24:15.590726  5128 net.cpp:120] Setting up relu5_3
I0908 11:24:15.590726  5128 net.cpp:127] Top shape: 1 512 14 14 (100352)
I0908 11:24:15.590726  5128 layer_factory.hpp:74] Creating layer conv_proposal1
I0908 11:24:15.590726  5128 net.cpp:90] Creating Layer conv_proposal1
I0908 11:24:15.590726  5128 net.cpp:420] conv_proposal1 <- conv5_3
I0908 11:24:15.590726  5128 net.cpp:378] conv_proposal1 -> conv_proposal1
I0908 11:24:15.590726  5128 net.cpp:120] Setting up conv_proposal1
I0908 11:24:15.621994  5128 net.cpp:127] Top shape: 1 512 14 14 (100352)
I0908 11:24:15.621994  5128 layer_factory.hpp:74] Creating layer relu_proposal1
I0908 11:24:15.621994  5128 net.cpp:90] Creating Layer relu_proposal1
I0908 11:24:15.621994  5128 net.cpp:420] relu_proposal1 <- conv_proposal1
I0908 11:24:15.621994  5128 net.cpp:367] relu_proposal1 -> conv_proposal1 (in-place)
I0908 11:24:15.621994  5128 net.cpp:120] Setting up relu_proposal1
I0908 11:24:15.621994  5128 net.cpp:127] Top shape: 1 512 14 14 (100352)
I0908 11:24:15.621994  5128 layer_factory.hpp:74] Creating layer conv_proposal1_relu_proposal1_0_split
I0908 11:24:15.621994  5128 net.cpp:90] Creating Layer conv_proposal1_relu_proposal1_0_split
I0908 11:24:15.621994  5128 net.cpp:420] conv_proposal1_relu_proposal1_0_split <- conv_proposal1
I0908 11:24:15.621994  5128 net.cpp:378] conv_proposal1_relu_proposal1_0_split -> conv_proposal1_relu_proposal1_0_split_0
I0908 11:24:15.621994  5128 net.cpp:378] conv_proposal1_relu_proposal1_0_split -> conv_proposal1_relu_proposal1_0_split_1
I0908 11:24:15.621994  5128 net.cpp:120] Setting up conv_proposal1_relu_proposal1_0_split
I0908 11:24:15.621994  5128 net.cpp:127] Top shape: 1 512 14 14 (100352)
I0908 11:24:15.621994  5128 net.cpp:127] Top shape: 1 512 14 14 (100352)
I0908 11:24:15.621994  5128 layer_factory.hpp:74] Creating layer proposal_cls_score
I0908 11:24:15.621994  5128 net.cpp:90] Creating Layer proposal_cls_score
I0908 11:24:15.621994  5128 net.cpp:420] proposal_cls_score <- conv_proposal1_relu_proposal1_0_split_0
I0908 11:24:15.621994  5128 net.cpp:378] proposal_cls_score -> proposal_cls_score
I0908 11:24:15.621994  5128 net.cpp:120] Setting up proposal_cls_score
I0908 11:24:15.621994  5128 net.cpp:127] Top shape: 1 14 14 14 (2744)
I0908 11:24:15.621994  5128 layer_factory.hpp:74] Creating layer proposal_bbox_pred
I0908 11:24:15.621994  5128 net.cpp:90] Creating Layer proposal_bbox_pred
I0908 11:24:15.621994  5128 net.cpp:420] proposal_bbox_pred <- conv_proposal1_relu_proposal1_0_split_1
I0908 11:24:15.621994  5128 net.cpp:378] proposal_bbox_pred -> proposal_bbox_pred
I0908 11:24:15.621994  5128 net.cpp:120] Setting up proposal_bbox_pred
I0908 11:24:15.621994  5128 net.cpp:127] Top shape: 1 28 14 14 (5488)
I0908 11:24:15.621994  5128 layer_factory.hpp:74] Creating layer proposal_cls_score_reshape
I0908 11:24:15.621994  5128 net.cpp:90] Creating Layer proposal_cls_score_reshape
I0908 11:24:15.621994  5128 net.cpp:420] proposal_cls_score_reshape <- proposal_cls_score
I0908 11:24:15.621994  5128 net.cpp:378] proposal_cls_score_reshape -> proposal_cls_score_reshape
I0908 11:24:15.621994  5128 net.cpp:120] Setting up proposal_cls_score_reshape
I0908 11:24:15.621994  5128 net.cpp:127] Top shape: 1 2 98 14 (2744)
I0908 11:24:15.621994  5128 layer_factory.hpp:74] Creating layer proposal_cls_score_reshape_proposal_cls_score_reshape_0_split
I0908 11:24:15.621994  5128 net.cpp:90] Creating Layer proposal_cls_score_reshape_proposal_cls_score_reshape_0_split
I0908 11:24:15.621994  5128 net.cpp:420] proposal_cls_score_reshape_proposal_cls_score_reshape_0_split <- proposal_cls_score_reshape
I0908 11:24:15.621994  5128 net.cpp:378] proposal_cls_score_reshape_proposal_cls_score_reshape_0_split -> proposal_cls_score_reshape_proposal_cls_score_reshape_0_split_0
I0908 11:24:15.621994  5128 net.cpp:378] proposal_cls_score_reshape_proposal_cls_score_reshape_0_split -> proposal_cls_score_reshape_proposal_cls_score_reshape_0_split_1
I0908 11:24:15.621994  5128 net.cpp:120] Setting up proposal_cls_score_reshape_proposal_cls_score_reshape_0_split
I0908 11:24:15.621994  5128 net.cpp:127] Top shape: 1 2 98 14 (2744)
I0908 11:24:15.621994  5128 net.cpp:127] Top shape: 1 2 98 14 (2744)
I0908 11:24:15.621994  5128 layer_factory.hpp:74] Creating layer labels_reshape
I0908 11:24:15.621994  5128 net.cpp:90] Creating Layer labels_reshape
I0908 11:24:15.621994  5128 net.cpp:420] labels_reshape <- labels
I0908 11:24:15.621994  5128 net.cpp:378] labels_reshape -> labels_reshape
I0908 11:24:15.621994  5128 net.cpp:120] Setting up labels_reshape
I0908 11:24:15.621994  5128 net.cpp:127] Top shape: 1 1 98 14 (1372)
I0908 11:24:15.621994  5128 layer_factory.hpp:74] Creating layer labels_reshape_labels_reshape_0_split
I0908 11:24:15.621994  5128 net.cpp:90] Creating Layer labels_reshape_labels_reshape_0_split
I0908 11:24:15.621994  5128 net.cpp:420] labels_reshape_labels_reshape_0_split <- labels_reshape
I0908 11:24:15.621994  5128 net.cpp:378] labels_reshape_labels_reshape_0_split -> labels_reshape_labels_reshape_0_split_0
I0908 11:24:15.621994  5128 net.cpp:378] labels_reshape_labels_reshape_0_split -> labels_reshape_labels_reshape_0_split_1
I0908 11:24:15.621994  5128 net.cpp:120] Setting up labels_reshape_labels_reshape_0_split
I0908 11:24:15.621994  5128 net.cpp:127] Top shape: 1 1 98 14 (1372)
I0908 11:24:15.621994  5128 net.cpp:127] Top shape: 1 1 98 14 (1372)
I0908 11:24:15.621994  5128 layer_factory.hpp:74] Creating layer labels_weights_reshape
I0908 11:24:15.621994  5128 net.cpp:90] Creating Layer labels_weights_reshape
I0908 11:24:15.621994  5128 net.cpp:420] labels_weights_reshape <- labels_weights
I0908 11:24:15.621994  5128 net.cpp:378] labels_weights_reshape -> labels_weights_reshape
I0908 11:24:15.621994  5128 net.cpp:120] Setting up labels_weights_reshape
I0908 11:24:15.621994  5128 net.cpp:127] Top shape: 1 1 98 14 (1372)
I0908 11:24:15.621994  5128 layer_factory.hpp:74] Creating layer loss
I0908 11:24:15.621994  5128 net.cpp:90] Creating Layer loss
I0908 11:24:15.621994  5128 net.cpp:420] loss <- proposal_cls_score_reshape_proposal_cls_score_reshape_0_split_0
I0908 11:24:15.621994  5128 net.cpp:420] loss <- labels_reshape_labels_reshape_0_split_0
I0908 11:24:15.621994  5128 net.cpp:420] loss <- labels_weights_reshape
…
I0908 11:24:16.450177  5128 net.cpp:743] Ignoring source layer drop6
I0908 11:24:16.450177  5128 net.cpp:743] Ignoring source layer fc7
I0908 11:24:16.450177  5128 net.cpp:743] Ignoring source layer relu7
I0908 11:24:16.450177  5128 net.cpp:743] Ignoring source layer drop7
I0908 11:24:16.450177  5128 net.cpp:743] Ignoring source layer fc8
I0908 11:24:16.450177  5128 net.cpp:743] Ignoring source layer prob
I0908 11:24:16.512715  5128 net.cpp:42] Initializing net from parameters: 
name: "VGG_ILSVRC_16"
input: "data"
input_dim: 1
input_dim: 3
input_dim: 224
input_dim: 224
state {
  phase: TEST
}
layer {
  name: "conv1_1"
  type: "Convolution"
  bottom: "data"
  top: "conv1_1"
  param {
    lr_mult: 0
  }
  param {
    lr_mult: 0
  }
  convolution_param {
    num_output: 64
    pad: 1
    kernel_size: 3
  }
}
layer {
  name: "relu1_1"
  type: "ReLU"
  bottom: "conv1_1"
  top: "conv1_1"
}
layer {
  name: "conv1_2"
  type: "Convolution"
  bottom: "conv1_1"
  top: "conv1_2"
  param {
    lr_mult: 0
  }
  param {
    lr_mult: 0
  }
  convolution_param {
    num_output: 64
    pad: 1
    kernel_size: 3
  }
}
layer {
  name: "relu1_2"
  type: "ReLU"
  bottom: "conv1_2"
  top: "conv1_2"
}
layer {
  name: "pool1"
  type: "Pooling"
  bottom: "conv1_2"
  top: "pool1"
  pooling_param {
    pool: MAX
    kernel_size: 2
    stride: 2
  }
}
layer {
  name: "conv2_1"
  type: "Convolution"
  bottom: "pool1"
  top: "conv2_1"
  param {
    lr_mult: 0
  }
  param {
    lr_mult: 0
  }
  convolution_param {
    num_output: 128
    pad: 1
    kernel_size: 3
  }
}
layer {
  name: "relu2_1"
  type: "ReLU"
  bottom: "conv2_1"
  top: "conv2_1"
}
layer {
  name: "conv2_2"
  type: "Convolution"
  bottom: "conv2_1"
  top: "conv2_2"
  param {
    lr_mult: 0
  }
  param {
    lr_mult: 0
  }
  convolution_param {
    num_output: 128
    pad: 1
    kernel_size: 3
  }
}
layer {
  name: "relu2_2"
  type: "ReLU"
  bottom: "conv2_2"
  top: "conv2_2"
}
layer {
  name: "pool2"
  type: "Pooling"
  bottom: "conv2_2"
  top: "pool2"
  pooling_param {
    pool: MAX
    kernel_size: 2
    stride: 2
  }
}
layer {
  name: "conv3_1"
  type: "Convolution"
  bottom: "pool2"
  top: "conv3_1"
  param {
    lr_mult: 1
  }
  param {
    lr_mult: 2
  }
  convolution_param {
    num_output: 256
    pad: 1
    kernel_size: 3
  }
}
layer {
  name: "relu3_1"
  type: "ReLU"
  bottom: "conv3_1"
  top: "conv3_1"
}
layer {
  name: "conv3_2"
  type: "Convolution"
  bottom: "conv3_1"
  top: "conv3_2"
  param {
    lr_mult: 1
  }
  param {
    lr_mult: 2
  }
  convolution_param {
    num_output: 256
    pad: 1
    kernel_size: 3
  }
}
layer {
  name: "relu3_2"
  type: "ReLU"
  bottom: "conv3_2"
  top: "conv3_2"
}
layer {
  name: "conv3_3"
  type: "Convolution"
  bottom: "conv3_2"
  top: "conv3_3"
  param {
    lr_mult: 1
  }
  param {
    lr_mult: 2
  }
  convolution_param {
    num_output: 256
    pad: 1
    kernel_size: 3
  }
}
layer {
  name: "relu3_3"
  type: "ReLU"
  bottom: "conv3_3"
  top: "conv3_3"
}
layer {
  name: "pool3"
  type: "Pooling"
  bottom: "conv3_3"
  top: "pool3"
  pooling_param {
    pool: MAX
    kernel_size: 2
    stride: 2
  }
}
layer {
  name: "conv4_1"
  type: "Convolution"
  bottom: "pool3"
  top: "conv4_1"
  param {
    lr_mult: 1
  }
  param {
    lr_mult: 2
  }
  convolution_param {
    num_output: 512
    pad: 1
    kernel_size: 3
  }
}
layer {
  name: "relu4_1"
  type: "ReLU"
  bottom: "conv4_1"
  top: "conv4_1"
}
layer {
  name: "conv4_2"
  type: "Convolution"
  bottom: "conv4_1"
  top: "conv4_2"
  param {
    lr_mult: 1
  }
  param {
    lr_mult: 2
  }
  convolution_param {
    num_output: 512
    pad: 1
    kernel_size: 3
  }
}
layer {
  name: "relu4_2"
  type: "ReLU"
  bottom: "conv4_2"
  top: "conv4_2"
}
layer {
  name: "conv4_3"
  type: "Convolution"
  bottom: "conv4_2"
  top: "conv4_3"
  param {
    lr_mult: 1
  }
  param {
    lr_mult: 2
  }
  convolution_param {
    num_output: 512
    pad: 1
    kernel_size: 3
  }
}
layer {
  name: "relu4_3"
  type: "ReLU"
  bottom: "conv4_3"
  top: "conv4_3"
}
layer {
  name: "pool4"
  type: "Pooling"
  bottom: "conv4_3"
  top: "pool4"
  pooling_param {
    pool: MAX
    kernel_size: 2
    stride: 2
  }
}
layer {
  name: "conv5_1"
  type: "Convolution"
  bottom: "pool4"
  top: "conv5_1"
  param {
    lr_mult: 1
  }
  param {
    lr_mult: 2
  }
  convolution_param {
    num_output: 512
    pad: 1
    kernel_size: 3
  }
}
layer {
  name: "relu5_1"
  type: "ReLU"
  bottom: "conv5_1"
  top: "conv5_1"
}
layer {
  name: "conv5_2"
  type: "Convolution"
  bottom: "conv5_1"
  top: "conv5_2"
  param {
    lr_mult: 1
  }
  param {
    lr_mult: 2
  }
  convolution_param {
    num_output: 512
    pad: 1
    kernel_size: 3
  }
}
layer {
  name: "relu5_2"
  type: "ReLU"
  bottom: "conv5_2"
  top: "conv5_2"
}
layer {
  name: "conv5_3"
  type: "Convolution"
  bottom: "conv5_2"
  top: "conv5_3"
  param {
    lr_mult: 1
  }
  param {
    lr_mult: 2
  }
  convolution_param {
    num_output: 512
    pad: 1
    kernel_size: 3
  }
}
layer {
  name: "relu5_3"
  type: "ReLU"
  bottom: "conv5_3"
  top: "conv5_3"
}
layer {
  name: "conv_proposal1"
  type: "Convolution"
  bottom: "conv5_3"
  top: "conv_proposal1"
  param {
    lr_mult: 1
  }
  param {
    lr_mult: 2
  }
  convolution_param {
    num_output: 512
    pad: 1
    kernel_size: 3
    stride: 1
    weight_filler {
      type: "gaussian"
      std: 0.01
    }
    bias_filler {
      type: "constant"
      value: 0
    }
  }
}
layer {
  name: "relu_proposal1"
  type: "ReLU"
  bottom: "conv_proposal1"
  top: "conv_proposal1"
}
layer {
  name: "proposal_cls_score"
  type: "Convolution"
  bottom: "conv_proposal1"
  top: "proposal_cls_score"
  param {
    lr_mult: 1
  }
  param {
    lr_mult: 2
  }
  convolution_param {
    num_output: 14
    pad: 0
    kernel_size: 1
    stride: 1
    weight_filler {
      type: "gaussian"
      std: 0.01
    }
    bias_filler {
      type: "constant"
      value: 0
    }
  }
}
layer {
  name: "proposal_bbox_pred"
  type: "Convolution"
  bottom: "conv_proposal1"
  top: "proposal_bbox_pred"
  param {
    lr_mult: 1
  }
  param {
    lr_mult: 2
  }
  convolution_param {
    num_output: 28
    pad: 0
    kernel_size: 1
    stride: 1
    weight_filler {
      type: "gaussian"
      std: 0.01
    }
    bias_filler {
      type: "constant"
      value: 0
    }
  }
}
layer {
  name: "proposal_cls_score_reshape"
  type: "Reshape"
  bottom: "proposal_cls_score"
  top: "proposal_cls_score_reshape"
  reshape_param {
    shape {
      dim: 0
      dim: 2
      dim: -1
      dim: 0
    }
  }
}
layer {
  name: "proposal_cls_prob"
  type: "Softmax"
  bottom: "proposal_cls_score_reshape"
  top: "proposal_cls_prob"
}
I0908 11:24:16.512715  5128 net.cpp:380] Input 0 -> data
I0908 11:24:16.512715  5128 layer_factory.hpp:74] Creating layer conv1_1
I0908 11:24:16.512715  5128 net.cpp:90] Creating Layer conv1_1
I0908 11:24:16.512715  5128 net.cpp:420] conv1_1 <- data
I0908 11:24:16.512715  5128 net.cpp:378] conv1_1 -> conv1_1
I0908 11:24:16.512715  5128 net.cpp:120] Setting up conv1_1
I0908 11:24:16.512715  5128 net.cpp:127] Top shape: 1 64 224 224 (3211264)
I0908 11:24:16.512715  5128 layer_factory.hpp:74] Creating layer relu1_1
I0908 11:24:16.512715  5128 net.cpp:90] Creating Layer relu1_1
I0908 11:24:16.512715  5128 net.cpp:420] relu1_1 <- conv1_1
I0908 11:24:16.512715  5128 net.cpp:367] relu1_1 -> conv1_1 (in-place)
I0908 11:24:16.512715  5128 net.cpp:120] Setting up relu1_1
I0908 11:24:16.512715  5128 net.cpp:127] Top shape: 1 64 224 224 (3211264)
I0908 11:24:16.512715  5128 layer_factory.hpp:74] Creating layer conv1_2
I0908 11:24:16.512715  5128 net.cpp:90] Creating Layer conv1_2
I0908 11:24:16.512715  5128 net.cpp:420] conv1_2 <- conv1_1
I0908 11:24:16.512715  5128 net.cpp:378] conv1_2 -> conv1_2
I0908 11:24:16.512715  5128 net.cpp:120] Setting up conv1_2
I0908 11:24:16.512715  5128 net.cpp:127] Top shape: 1 64 224 224 (3211264)
I0908 11:24:16.512715  5128 layer_factory.hpp:74] Creating layer relu1_2
I0908 11:24:16.512715  5128 net.cpp:90] Creating Layer relu1_2
I0908 11:24:16.512715  5128 net.cpp:420] relu1_2 <- conv1_2
I0908 11:24:16.512715  5128 net.cpp:367] relu1_2 -> conv1_2 (in-place)
I0908 11:24:16.512715  5128 net.cpp:120] Setting up relu1_2
I0908 11:24:16.512715  5128 net.cpp:127] Top shape: 1 64 224 224 (3211264)
I0908 11:24:16.512715  5128 layer_factory.hpp:74] Creating layer pool1
I0908 11:24:16.512715  5128 net.cpp:90] Creating Layer pool1
I0908 11:24:16.512715  5128 net.cpp:420] pool1 <- conv1_2
I0908 11:24:16.512715  5128 net.cpp:378] pool1 -> pool1
I0908 11:24:16.512715  5128 net.cpp:120] Setting up pool1
I0908 11:24:16.512715  5128 net.cpp:127] Top shape: 1 64 112 112 (802816)
I0908 11:24:16.512715  5128 layer_factory.hpp:74] Creating layer conv2_1
I0908 11:24:16.512715  5128 net.cpp:90] Creating Layer conv2_1
I0908 11:24:16.512715  5128 net.cpp:420] conv2_1 <- pool1
I0908 11:24:16.512715  5128 net.cpp:378] conv2_1 -> conv2_1
I0908 11:24:16.512715  5128 net.cpp:120] Setting up conv2_1
I0908 11:24:16.512715  5128 net.cpp:127] Top shape: 1 128 112 112 (1605632)
I0908 11:24:16.512715  5128 layer_factory.hpp:74] Creating layer relu2_1
I0908 11:24:16.512715  5128 net.cpp:90] Creating Layer relu2_1
I0908 11:24:16.512715  5128 net.cpp:420] relu2_1 <- conv2_1
I0908 11:24:16.512715  5128 net.cpp:367] relu2_1 -> conv2_1 (in-place)
I0908 11:24:16.512715  5128 net.cpp:120] Setting up relu2_1
I0908 11:24:16.512715  5128 net.cpp:127] Top shape: 1 128 112 112 (1605632)
I0908 11:24:16.512715  5128 layer_factory.hpp:74] Creating layer conv2_2
I0908 11:24:16.512715  5128 net.cpp:90] Creating Layer conv2_2
I0908 11:24:16.512715  5128 net.cpp:420] conv2_2 <- conv2_1
I0908 11:24:16.512715  5128 net.cpp:378] conv2_2 -> conv2_2
I0908 11:24:16.512715  5128 net.cpp:120] Setting up conv2_2
I0908 11:24:16.512715  5128 net.cpp:127] Top shape: 1 128 112 112 (1605632)
I0908 11:24:16.512715  5128 layer_factory.hpp:74] Creating layer relu2_2
I0908 11:24:16.512715  5128 net.cpp:90] Creating Layer relu2_2
I0908 11:24:16.512715  5128 net.cpp:420] relu2_2 <- conv2_2
I0908 11:24:16.512715  5128 net.cpp:367] relu2_2 -> conv2_2 (in-place)
I0908 11:24:16.512715  5128 net.cpp:120] Setting up relu2_2
I0908 11:24:16.512715  5128 net.cpp:127] Top shape: 1 128 112 112 (1605632)
I0908 11:24:16.512715  5128 layer_factory.hpp:74] Creating layer pool2
I0908 11:24:16.512715  5128 net.cpp:90] Creating Layer pool2
I0908 11:24:16.512715  5128 net.cpp:420] pool2 <- conv2_2
I0908 11:24:16.512715  5128 net.cpp:378] pool2 -> pool2
I0908 11:24:16.512715  5128 net.cpp:120] Setting up pool2
I0908 11:24:16.512715  5128 net.cpp:127] Top shape: 1 128 56 56 (401408)
I0908 11:24:16.512715  5128 layer_factory.hpp:74] Creating layer conv3_1
I0908 11:24:16.512715  5128 net.cpp:90] Creating Layer conv3_1
I0908 11:24:16.512715  5128 net.cpp:420] conv3_1 <- pool2
I0908 11:24:16.512715  5128 net.cpp:378] conv3_1 -> conv3_1
I0908 11:24:16.512715  5128 net.cpp:120] Setting up conv3_1
I0908 11:24:16.512715  5128 net.cpp:127] Top shape: 1 256 56 56 (802816)
I0908 11:24:16.512715  5128 layer_factory.hpp:74] Creating layer relu3_1
I0908 11:24:16.512715  5128 net.cpp:90] Creating Layer relu3_1
I0908 11:24:16.512715  5128 net.cpp:420] relu3_1 <- conv3_1
I0908 11:24:16.512715  5128 net.cpp:367] relu3_1 -> conv3_1 (in-place)
I0908 11:24:16.512715  5128 net.cpp:120] Setting up relu3_1
I0908 11:24:16.512715  5128 net.cpp:127] Top shape: 1 256 56 56 (802816)
I0908 11:24:16.512715  5128 layer_factory.hpp:74] Creating layer conv3_2
I0908 11:24:16.512715  5128 net.cpp:90] Creating Layer conv3_2
I0908 11:24:16.512715  5128 net.cpp:420] conv3_2 <- conv3_1
I0908 11:24:16.512715  5128 net.cpp:378] conv3_2 -> conv3_2
I0908 11:24:16.512715  5128 net.cpp:120] Setting up conv3_2
I0908 11:24:16.512715  5128 net.cpp:127] Top shape: 1 256 56 56 (802816)
I0908 11:24:16.512715  5128 layer_factory.hpp:74] Creating layer relu3_2
I0908 11:24:16.512715  5128 net.cpp:90] Creating Layer relu3_2
I0908 11:24:16.512715  5128 net.cpp:420] relu3_2 <- conv3_2
I0908 11:24:16.512715  5128 net.cpp:367] relu3_2 -> conv3_2 (in-place)
I0908 11:24:16.512715  5128 net.cpp:120] Setting up relu3_2
I0908 11:24:16.512715  5128 net.cpp:127] Top shape: 1 256 56 56 (802816)
I0908 11:24:16.512715  5128 layer_factory.hpp:74] Creating layer conv3_3
I0908 11:24:16.512715  5128 net.cpp:90] Creating Layer conv3_3
I0908 11:24:16.512715  5128 net.cpp:420] conv3_3 <- conv3_2
I0908 11:24:16.512715  5128 net.cpp:378] conv3_3 -> conv3_3
I0908 11:24:16.512715  5128 net.cpp:120] Setting up conv3_3
I0908 11:24:16.512715  5128 net.cpp:127] Top shape: 1 256 56 56 (802816)
I0908 11:24:16.512715  5128 layer_factory.hpp:74] Creating layer relu3_3
I0908 11:24:16.512715  5128 net.cpp:90] Creating Layer relu3_3
I0908 11:24:16.512715  5128 net.cpp:420] relu3_3 <- conv3_3
I0908 11:24:16.512715  5128 net.cpp:367] relu3_3 -> conv3_3 (in-place)
I0908 11:24:16.512715  5128 net.cpp:120] Setting up relu3_3
I0908 11:24:16.512715  5128 net.cpp:127] Top shape: 1 256 56 56 (802816)
I0908 11:24:16.512715  5128 layer_factory.hpp:74] Creating layer pool3
I0908 11:24:16.512715  5128 net.cpp:90] Creating Layer pool3
I0908 11:24:16.512715  5128 net.cpp:420] pool3 <- conv3_3
I0908 11:24:16.512715  5128 net.cpp:378] pool3 -> pool3
I0908 11:24:16.512715  5128 net.cpp:120] Setting up pool3
I0908 11:24:16.512715  5128 net.cpp:127] Top shape: 1 256 28 28 (200704)
I0908 11:24:16.512715  5128 layer_factory.hpp:74] Creating layer conv4_1
I0908 11:24:16.512715  5128 net.cpp:90] Creating Layer conv4_1
I0908 11:24:16.512715  5128 net.cpp:420] conv4_1 <- pool3
I0908 11:24:16.512715  5128 net.cpp:378] conv4_1 -> conv4_1
I0908 11:24:16.512715  5128 net.cpp:120] Setting up conv4_1
I0908 11:24:16.512715  5128 net.cpp:127] Top shape: 1 512 28 28 (401408)
I0908 11:24:16.512715  5128 layer_factory.hpp:74] Creating layer relu4_1
I0908 11:24:16.512715  5128 net.cpp:90] Creating Layer relu4_1
I0908 11:24:16.512715  5128 net.cpp:420] relu4_1 <- conv4_1
I0908 11:24:16.512715  5128 net.cpp:367] relu4_1 -> conv4_1 (in-place)
I0908 11:24:16.512715  5128 net.cpp:120] Setting up relu4_1
I0908 11:24:16.512715  5128 net.cpp:127] Top shape: 1 512 28 28 (401408)
I0908 11:24:16.512715  5128 layer_factory.hpp:74] Creating layer conv4_2
I0908 11:24:16.512715  5128 net.cpp:90] Creating Layer conv4_2
I0908 11:24:16.512715  5128 net.cpp:420] conv4_2 <- conv4_1
I0908 11:24:16.512715  5128 net.cpp:378] conv4_2 -> conv4_2
I0908 11:24:16.512715  5128 net.cpp:120] Setting up conv4_2
I0908 11:24:16.512715  5128 net.cpp:127] Top shape: 1 512 28 28 (401408)
I0908 11:24:16.512715  5128 layer_factory.hpp:74] Creating layer relu4_2
I0908 11:24:16.512715  5128 net.cpp:90] Creating Layer relu4_2
I0908 11:24:16.512715  5128 net.cpp:420] relu4_2 <- conv4_2
I0908 11:24:16.512715  5128 net.cpp:367] relu4_2 -> conv4_2 (in-place)
I0908 11:24:16.512715  5128 net.cpp:120] Setting up relu4_2
I0908 11:24:16.512715  5128 net.cpp:127] Top shape: 1 512 28 28 (401408)
I0908 11:24:16.512715  5128 layer_factory.hpp:74] Creating layer conv4_3
I0908 11:24:16.512715  5128 net.cpp:90] Creating Layer conv4_3
I0908 11:24:16.512715  5128 net.cpp:420] conv4_3 <- conv4_2
I0908 11:24:16.512715  5128 net.cpp:378] conv4_3 -> conv4_3
I0908 11:24:16.512715  5128 net.cpp:120] Setting up conv4_3
I0908 11:24:16.528339  5128 net.cpp:127] Top shape: 1 512 28 28 (401408)
I0908 11:24:16.528339  5128 layer_factory.hpp:74] Creating layer relu4_3
I0908 11:24:16.528339  5128 net.cpp:90] Creating Layer relu4_3
I0908 11:24:16.528339  5128 net.cpp:420] relu4_3 <- conv4_3
I0908 11:24:16.528339  5128 net.cpp:367] relu4_3 -> conv4_3 (in-place)
I0908 11:24:16.528339  5128 net.cpp:120] Setting up relu4_3
I0908 11:24:16.528339  5128 net.cpp:127] Top shape: 1 512 28 28 (401408)
I0908 11:24:16.528339  5128 layer_factory.hpp:74] Creating layer pool4
I0908 11:24:16.528339  5128 net.cpp:90] Creating Layer pool4
I0908 11:24:16.528339  5128 net.cpp:420] pool4 <- conv4_3
I0908 11:24:16.528339  5128 net.cpp:378] pool4 -> pool4
I0908 11:24:16.528339  5128 net.cpp:120] Setting up pool4
I0908 11:24:16.528339  5128 net.cpp:127] Top shape: 1 512 14 14 (100352)
I0908 11:24:16.528339  5128 layer_factory.hpp:74] Creating layer conv5_1
I0908 11:24:16.528339  5128 net.cpp:90] Creating Layer conv5_1
I0908 11:24:16.528339  5128 net.cpp:420] conv5_1 <- pool4
I0908 11:24:16.528339  5128 net.cpp:378] conv5_1 -> conv5_1
I0908 11:24:16.528339  5128 net.cpp:120] Setting up conv5_1
I0908 11:24:16.528339  5128 net.cpp:127] Top shape: 1 512 14 14 (100352)
I0908 11:24:16.528339  5128 layer_factory.hpp:74] Creating layer relu5_1
I0908 11:24:16.528339  5128 net.cpp:90] Creating Layer relu5_1
I0908 11:24:16.528339  5128 net.cpp:420] relu5_1 <- conv5_1
I0908 11:24:16.528339  5128 net.cpp:367] relu5_1 -> conv5_1 (in-place)
I0908 11:24:16.528339  5128 net.cpp:120] Setting up relu5_1
I0908 11:24:16.528339  5128 net.cpp:127] Top shape: 1 512 14 14 (100352)
I0908 11:24:16.528339  5128 layer_factory.hpp:74] Creating layer conv5_2
I0908 11:24:16.528339  5128 net.cpp:90] Creating Layer conv5_2
I0908 11:24:16.528339  5128 net.cpp:420] conv5_2 <- conv5_1
I0908 11:24:16.528339  5128 net.cpp:378] conv5_2 -> conv5_2
I0908 11:24:16.528339  5128 net.cpp:120] Setting up conv5_2
I0908 11:24:16.528339  5128 net.cpp:127] Top shape: 1 512 14 14 (100352)
I0908 11:24:16.528339  5128 layer_factory.hpp:74] Creating layer relu5_2
I0908 11:24:16.528339  5128 net.cpp:90] Creating Layer relu5_2
I0908 11:24:16.528339  5128 net.cpp:420] relu5_2 <- conv5_2
I0908 11:24:16.528339  5128 net.cpp:367] relu5_2 -> conv5_2 (in-place)
I0908 11:24:16.528339  5128 net.cpp:120] Setting up relu5_2
I0908 11:24:16.528339  5128 net.cpp:127] Top shape: 1 512 14 14 (100352)
I0908 11:24:16.528339  5128 layer_factory.hpp:74] Creating layer conv5_3
I0908 11:24:16.528339  5128 net.cpp:90] Creating Layer conv5_3
I0908 11:24:16.528339  5128 net.cpp:420] conv5_3 <- conv5_2
I0908 11:24:16.528339  5128 net.cpp:378] conv5_3 -> conv5_3
I0908 11:24:16.528339  5128 net.cpp:120] Setting up conv5_3
I0908 11:24:16.528339  5128 net.cpp:127] Top shape: 1 512 14 14 (100352)
I0908 11:24:16.528339  5128 layer_factory.hpp:74] Creating layer relu5_3
I0908 11:24:16.528339  5128 net.cpp:90] Creating Layer relu5_3
I0908 11:24:16.528339  5128 net.cpp:420] relu5_3 <- conv5_3
I0908 11:24:16.528339  5128 net.cpp:367] relu5_3 -> conv5_3 (in-place)
I0908 11:24:16.528339  5128 net.cpp:120] Setting up relu5_3
I0908 11:24:16.528339  5128 net.cpp:127] Top shape: 1 512 14 14 (100352)
I0908 11:24:16.528339  5128 layer_factory.hpp:74] Creating layer conv_proposal1
I0908 11:24:16.528339  5128 net.cpp:90] Creating Layer conv_proposal1
I0908 11:24:16.528339  5128 net.cpp:420] conv_proposal1 <- conv5_3
I0908 11:24:16.528339  5128 net.cpp:378] conv_proposal1 -> conv_proposal1
I0908 11:24:16.528339  5128 net.cpp:120] Setting up conv_proposal1
I0908 11:24:16.559597  5128 net.cpp:127] Top shape: 1 512 14 14 (100352)
I0908 11:24:16.559597  5128 layer_factory.hpp:74] Creating layer relu_proposal1
I0908 11:24:16.559597  5128 net.cpp:90] Creating Layer relu_proposal1
I0908 11:24:16.559597  5128 net.cpp:420] relu_proposal1 <- conv_proposal1
I0908 11:24:16.559597  5128 net.cpp:367] relu_proposal1 -> conv_proposal1 (in-place)
I0908 11:24:16.559597  5128 net.cpp:120] Setting up relu_proposal1
I0908 11:24:16.559597  5128 net.cpp:127] Top shape: 1 512 14 14 (100352)
I0908 11:24:16.559597  5128 layer_factory.hpp:74] Creating layer conv_proposal1_relu_proposal1_0_split
I0908 11:24:16.559597  5128 net.cpp:90] Creating Layer conv_proposal1_relu_proposal1_0_split
I0908 11:24:16.559597  5128 net.cpp:420] conv_proposal1_relu_proposal1_0_split <- conv_proposal1
I0908 11:24:16.559597  5128 net.cpp:378] conv_proposal1_relu_proposal1_0_split -> conv_proposal1_relu_proposal1_0_split_0
I0908 11:24:16.559597  5128 net.cpp:378] conv_proposal1_relu_proposal1_0_split -> conv_proposal1_relu_proposal1_0_split_1
I0908 11:24:16.559597  5128 net.cpp:120] Setting up conv_proposal1_relu_proposal1_0_split
I0908 11:24:16.559597  5128 net.cpp:127] Top shape: 1 512 14 14 (100352)
I0908 11:24:16.559597  5128 net.cpp:127] Top shape: 1 512 14 14 (100352)
I0908 11:24:16.559597  5128 layer_factory.hpp:74] Creating layer proposal_cls_score
I0908 11:24:16.559597  5128 net.cpp:90] Creating Layer proposal_cls_score
I0908 11:24:16.559597  5128 net.cpp:420] proposal_cls_score <- conv_proposal1_relu_proposal1_0_split_0
I0908 11:24:16.559597  5128 net.cpp:378] proposal_cls_score -> proposal_cls_score
I0908 11:24:16.559597  5128 net.cpp:120] Setting up proposal_cls_score
I0908 11:24:16.559597  5128 net.cpp:127] Top shape: 1 14 14 14 (2744)
I0908 11:24:16.559597  5128 layer_factory.hpp:74] Creating layer proposal_bbox_pred
I0908 11:24:16.559597  5128 net.cpp:90] Creating Layer proposal_bbox_pred
I0908 11:24:16.559597  5128 net.cpp:420] proposal_bbox_pred <- conv_proposal1_relu_proposal1_0_split_1
I0908 11:24:16.559597  5128 net.cpp:378] proposal_bbox_pred -> proposal_bbox_pred
I0908 11:24:16.559597  5128 net.cpp:120] Setting up proposal_bbox_pred
I0908 11:24:16.559597  5128 net.cpp:127] Top shape: 1 28 14 14 (5488)
I0908 11:24:16.559597  5128 layer_factory.hpp:74] Creating layer proposal_cls_score_reshape
I0908 11:24:16.559597  5128 net.cpp:90] Creating Layer proposal_cls_score_reshape
I0908 11:24:16.559597  5128 net.cpp:420] proposal_cls_score_reshape <- proposal_cls_score
I0908 11:24:16.559597  5128 net.cpp:378] proposal_cls_score_reshape -> proposal_cls_score_reshape
I0908 11:24:16.559597  5128 net.cpp:120] Setting up proposal_cls_score_reshape
I0908 11:24:16.559597  5128 net.cpp:127] Top shape: 1 2 98 14 (2744)
I0908 11:24:16.559597  5128 layer_factory.hpp:74] Creating layer proposal_cls_prob
I0908 11:24:16.559597  5128 net.cpp:90] Creating Layer proposal_cls_prob
I0908 11:24:16.559597  5128 net.cpp:420] proposal_cls_prob <- proposal_cls_score_reshape
I0908 11:24:16.559597  5128 net.cpp:378] proposal_cls_prob -> proposal_cls_prob
I0908 11:24:16.559597  5128 net.cpp:120] Setting up proposal_cls_prob
I0908 11:24:16.559597  5128 net.cpp:127] Top shape: 1 2 98 14 (2744)
I0908 11:24:16.559597  5128 net.cpp:194] proposal_cls_prob does not need backward computation.
I0908 11:24:16.559597  5128 net.cpp:194] proposal_cls_score_reshape does not need backward computation.
I0908 11:24:16.559597  5128 net.cpp:194] proposal_bbox_pred does not need backward computation.
I0908 11:24:16.559597  5128 net.cpp:194] proposal_cls_score does not need backward computation.
…
